lightning_logs/version_14/checkpoints/epoch=1-step=7.ckpt (torch, 7230 bytes, 9 tensors)

init_hidden.0.weight f4 [32, 4]
000000 be 94 97 be e0 e8 92 3d 10 6d 23 3e a0 01 11 3d
       -0.2960567 0.07173324 0.15959573 0.03540194
000010 fc fc a9 be 90 c4 f0 3e 8a eb 98 be 77 8c ce 3e
       -0.33200824 0.47024965 -0.29867202 0.4034154
000020 73 a7 c7 be 3c 20 e7 bd fb 1a 8f 3e 4a e1 49 be
       -0.3899494 -0.11285445 0.27950272 -0.19714847
000030 0e 0d d7 3e 06 2b b0 be 44 fb d6 be e0 de 66 be
       0.42002147 -0.34407824 -0.41988575 -0.22545958
000040 59 d9 b4 3d d6 91 ef 3e b7 a8 6c be 41 c9 3e 3e
       0.08830518 0.46790951 -0.23111235 0.1863146
000050 f5 ba f0 bd 22 cb cd bd da 45 c0 3e e1 62 c2 be
       -0.11754409 -0.1004851 0.37553293 -0.37966064
000060 f4 b6 79 3d dc ce f4 3e ca e5 78 bd 6f d0 ca 3e
       0.060965493 0.4781407 -0.06076602 0.39612147
000070 84 ac 1d be 00 12 ce 3e f6 a2 f7 be 28 95 93 bd
       -0.1539784 0.40248108 -0.48366517 -0.07206184
000080 e2 b9 a3 bd 75 14 2e 3e 27 09 51 3e fd 9d c8 3e
       -0.07994439 0.16999991 0.20413648 0.39183035
000090 c8 8f 98 bd 60 6d a2 bc ca 4f af 3e 90 88 0a be
       -0.07449299 -0.019827545 0.34240562 -0.13528657
0000a0 a1 67 dc 3e 12 80 ae be 03 03 7e bd 62 49 0e bd
       0.43047813 -0.34082085 -0.06201459 -0.034737952
0000b0 a0 75 64 3e 66 05 af 3e d0 4e a2 bd 4e 17 d4 be
       0.22310495 0.34183806 -0.079251885 -0.4142403
0000c0 17 92 80 3e d3 9a 1c 3e 8f 1e 51 3e 94 31 9c be
       0.25111458 0.15293436 0.20421813 -0.30506575
0000d0 a2 be a0 3e af 6a ee 3e a6 4c 11 3d 87 26 f3 be
       0.3139544 0.46565768 0.03547349 -0.47490332
0000e0 80 bd b7 3e 02 bc b9 be fd a9 fb 3d 53 1a a5 3d
       0.35886765 -0.3627625 0.12288282 0.080616616
0000f0 45 25 68 be 18 8b 39 3e 30 81 e1 be 02 18 f7 3d
       -0.22670467 0.18119466 -0.44043875 0.12065126
000100 fb df a5 be f9 98 77 bd 9f 79 73 3d 29 5b d6 3e
       -0.32397446 -0.06044862 0.05944216 0.41866425
000110 8b bc 72 be ce d3 a4 3e 02 92 7d bd 05 ef 72 be
       -0.23704736 0.32192844 -0.061906822 -0.23723991
000120 56 93 e1 be 72 7c ed be 6a 57 f7 3e 6c c1 04 be
       -0.4405772 -0.46384007 0.4830888 -0.1296441
000130 11 13 06 3d 96 a7 12 3e e6 01 b2 3e 19 80 de 3e
       0.032733027 0.14321741 0.34767073 0.43457106
000140 33 5e d3 3e 6b 11 ba be 48 53 94 bd e5 f8 93 be
       0.41282806 -0.36341414 -0.07242447 -0.2890083
000150 5b 3b 96 be 27 31 e3 3d ad 5c ec 3e 4e f3 d0 be
       -0.2934216 0.110933594 0.46164456 -0.40810627
000160 93 f0 9e 3e a7 b4 80 be 51 28 b7 bd 23 41 cf 3e
       0.3104292 -0.25137827 -0.089432366 0.40479383
000170 7a 40 f7 bd 53 94 1a 3d 1f 01 b7 be 52 e6 d5 3e
       -0.12072845 0.03773911 -0.35743043 0.41777283
000180 33 14 94 bd 99 39 bf be b6 01 0e 3e c0 fb b9 be
       -0.07230415 -0.3734863 0.1386784 -0.36324883
000190 f7 00 cf be 81 a9 b9 3c d6 08 c7 3e df bf 18 be
       -0.40430424 0.022663834 0.3887393 -0.14916943
0001a0 19 61 73 3e f4 2c dd 3e d8 c4 aa 3e ad 0c 85 be
       0.23767509 0.4319836 0.33353305 -0.25986233
0001b0 60 80 60 bd 60 1e 21 be 00 db cd be 00 a0 58 39
       -0.054809928 -0.15734243 -0.40206146 0.0002065897
0001c0 27 ab c4 3e 80 c1 db 3e 14 ca 5f 3d 54 c1 f8 3d
       0.3841183 0.42921066 0.054636076 0.121462494
0001d0 e8 a7 5d be 5a 3d c1 3e 2c 0c 55 be c4 d4 b1 be
       -0.21646082 0.3774212 -0.20805424 -0.3473264
0001e0 ff 62 ad 3d 42 71 9d 3e 65 c4 e2 be 13 6d eb 3e
       0.08466148 0.3075047 -0.44290462 0.45981655
0001f0 2d 53 30 3e 8f 33 b7 be 95 2d ec bd c1 23 da 3e
       0.17219229 -0.35781524 -0.115321316 0.42605403

init_hidden.0.bias f4 [32]
000000 7e 69 c4 be 58 be 1d be 30 d6 2f 3e 1c 47 e0 be
       -0.38361734 -0.15404642 0.1717155 -0.43804252
000010 45 33 90 3e d3 53 89 3e 4f d5 a2 3e 4a 36 a3 be
       0.28164116 0.26821765 0.31803367 -0.31877357
000020 4f 86 01 3f 38 bf 97 be d7 86 fb 3e 46 ae f5 be
       0.50595564 -0.29638076 0.49126312 -0.47984523
000030 19 5d e2 be ae 2f 99 3e 90 af 76 3d 88 6f 13 3d
       -0.44211653 0.2991919 0.060226023 0.035995036
000040 6c 7e 91 be 49 1f 55 be 63 0d 1b be 27 60 f5 be
       -0.28416765 -0.20812716 -0.15141825 -0.4792492
000050 ff 7f 09 3d eb 4a a5 3d be d9 f5 3b 55 5b 1d 3e
       0.033569332 0.0807093 0.0075027635 0.15366872
000060 bf e7 ee 3e 3d 32 00 3e a4 20 39 be 40 b6 52 be
       0.46661183 0.12519164 -0.18078858 -0.20577335
000070 e3 b7 9f be ca 76 b1 be 7f f1 94 bd 9a d4 c4 bd
       -0.31194982 -0.3466094 -0.07272624 -0.09610863

output_layer.weight f4 [1, 32]
000000 b2 0e a1 3d 42 d9 8a bd 32 0a 18 3e 0d 09 fe bd
       0.07864131 -0.0677972 0.14847639 -0.1240407
000010 66 9e 09 3c 38 ca 2a 3e 32 1d 3c 3e 20 b7 d1 bd
       0.008399582 0.16678703 0.18370512 -0.102400064
000020 36 82 21 3d 58 0f ab 3c 80 9b 99 bd 3e 2a 7a bd
       0.03943082 0.02088134 -0.075003624 -0.06107544
000030 e4 f3 51 3d d1 8b eb bd 9e 9d 17 3d 67 85 aa 3d
       0.051257983 -0.11501277 0.03701555 0.08326226
000040 0b 15 80 bd a9 fd 17 3e d7 07 d5 bb 93 20 b4 3d
       -0.06254014 0.14842857 -0.0065011787 0.087952755
000050 51 d8 3a 3e a9 0b 3e bd 59 bb d4 3d 72 43 2f bd
       0.1824658 -0.04639784 0.10387296 -0.04278893
000060 f6 cd 92 bc 9f 26 b6 bc f9 31 e1 3b 4b c4 88 bd
       -0.017920475 -0.022235213 0.0068724123 -0.06678065
000070 88 0b 4a 3d a0 44 da 3b 76 39 f5 3d 6c 18 e6 bc
       0.049327403 0.006661013 0.119738504 -0.028087817

exp_avg f4 [32, 4]
000000 00 00 00 00 00 00 00 00 00 00 00 00 00 00 00 00
       0.0 0.0 0.0 0.0
000010 76 ab 95 3b 88 bf f6 3b 2d 52 8b 3b a6 fb f5 3b
       0.004567559 0.0075301565 0.0042517395 0.0075068055
000020 73 6e af bb 88 ca da bb 39 71 28 bc 34 be b8 bb
       -0.0053537427 -0.0066769756 -0.010280901 -0.0056379084
000030 00 00 00 00 00 00 00 00 00 00 00 00 00 00 00 00
       0.0 0.0 0.0 0.0
000040 da 14 64 ba 4e 8c 56 ba 8d f9 3f ba f1 01 4b ba
       -0.0008700617 -0.0008184359 -0.0007323258 -0.0007744125
000050 6c 61 d9 bc 47 4f bf bc 3f c5 c5 bc ec 0b a2 bc
       -0.026535712 -0.023353232 -0.024141906 -0.019781075
000060 bb 50 0d bd 8f 1b 08 bd ef d8 f1 bc 2e 72 fd bc
       -0.03450082 -0.033229407 -0.029522387 -0.030938234
000070 00 00 00 00 00 00 00 00 00 00 00 00 00 00 00 00
       0.0 0.0 0.0 0.0
000080 38 72 df bb 9f ae d6 bb d0 df be bb 5f 37 c8 bb
       -0.006819036 -0.006551578 -0.0058250204 -0.0061101164
000090 00 00 00 00 00 00 00 00 00 00 00 00 00 00 00 00
       0.0 0.0 0.0 0.0
0000a0 2b da 77 3c 52 30 6f 3c aa 61 54 3c c9 65 5e 3c
       0.015127699 0.014598923 0.012962738 0.013574072
0000b0 00 00 00 00 00 00 00 00 00 00 00 00 00 00 00 00
       0.0 0.0 0.0 0.0
0000c0 73 e6 a5 b9 9a a8 d0 b9 53 e6 c1 b9 24 3a b8 b7
       -0.0003164295 -0.0003979847 -0.00036983434 -2.1961583e-05
0000d0 97 c5 ba 3c b9 2a b4 3c 80 64 9e 3c 7a 37 a4 3c
       0.022799296 0.021993028 0.019335032 0.020045985
0000e0 30 a8 c3 bb b1 b8 9a bb 1e f7 9d bb 78 54 99 bb
       -0.0059709772 -0.004721724 -0.0048207184 -0.004679259
0000f0 e1 42 d4 ba 86 dd 77 bb 58 d3 93 ba c5 52 5b bb
       -0.0016194248 -0.0037821247 -0.0011278195 -0.0033466083
000100 72 12 da 39 fb 87 6d 3a 9f 0c 59 3a 3a ce ee 3a
       0.00041593943 0.0009061095 0.0008279774 0.0018219419
000110 de 8b 9f 35 6a 5f 0a 38 f7 fb 00 38 3c 7a 39 33
       1.188713e-06 3.2990625e-05 3.075224e-05 4.318484e-08
000120 79 79 a6 36 2a a7 d4 37 a8 95 89 38 9f 3c bd 37
       4.961327e-06 2.5350211e-05 6.560545e-05 2.2558785e-05
000130 fe 14 c4 bb bf c1 f6 bb 52 2a fb bb 16 9a 0d bc
       -0.005983948 -0.0075304206 -0.007664957 -0.008642694
000140 35 84 67 bc b2 c9 c5 bb 6e 45 de bb a0 f8 8d bb
       -0.014130642 -0.006036007 -0.006783179 -0.004332617
000150 d4 2e 83 3b 86 f4 90 3b 7b 22 af 3b 60 f5 34 3b
       0.004003385 0.0044236807 0.0053446866 0.0027612075
000160 cf 4c 90 bc e9 2c 78 bc 14 1f 5c bc ce f8 86 bc
       -0.01761475 -0.015147426 -0.013435144 -0.016476061
000170 f9 82 de 3b 10 7d eb 3b 9d 10 a3 3b e6 18 f6 3b
       0.0067905155 0.0071865395 0.0049763457 0.0075102923
000180 d2 af 55 3b 89 a4 31 3b d8 49 39 3b 10 f9 20 3b
       0.0032606018 0.0027106127 0.0028272774 0.0024562515
000190 d9 d1 20 3b 92 61 40 3b 74 a1 62 3b 5f 70 39 3b
       0.0024539141 0.0029355031 0.0034581097 0.0028295738
0001a0 00 ae 07 ba c5 6e 04 ba 54 ff e5 b9 67 a8 de b9
       -0.00051757693 -0.00050519063 -0.00043868518 -0.0004246861
0001b0 00 00 00 00 00 00 00 00 00 00 00 00 00 00 00 00
       0.0 0.0 0.0 0.0
0001c0 80 5c 02 bc 68 e1 fe bb 8e f1 d2 bb b8 fa df bb
       -0.007956624 -0.0077783354 -0.006437487 -0.006835308
0001d0 00 00 00 00 00 00 00 00 00 00 00 00 00 00 00 00
       0.0 0.0 0.0 0.0
0001e0 3b 04 88 bc 48 f9 8c bc 85 5d 35 bc 13 52 92 bc
       -0.01660358 -0.01720871 -0.01106966 -0.017861402
0001f0 0b f6 57 3b 41 33 17 3b ff 13 21 3b 6d c4 76 3b
       0.003295305 0.0023071321 0.002457857 0.00376537

exp_avg_sq f4 [32, 4]
000000 00 00 00 00 00 00 00 00 00 00 00 00 00 00 00 00
       0.0 0.0 0.0 0.0
000010 dd 69 1c 35 26 16 cc 35 05 b8 08 35 b1 57 cf 35
       5.826858e-07 1.520563e-06 5.093173e-07 1.5448223e-06
000020 8a 6a 4c 35 e2 13 b0 35 2c 0d 44 36 09 24 85 35
       7.6150957e-07 1.3118809e-06 2.9213943e-06 9.91976e-07
000030 00 00 00 00 00 00 00 00 00 00 00 00 00 00 00 00
       0.0 0.0 0.0 0.0
000040 37 d9 aa 32 07 c7 8f 32 f7 7b 71 32 0b 7f 82 32
       1.9889383e-08 1.6737898e-08 1.4056233e-08 1.5191764e-08
000050 31 9f 98 37 da a2 68 37 0e 0c 7d 37 c8 33 28 37
       1.8193941e-05 1.3866194e-05 1.5082782e-05 1.0025637e-05
000060 81 67 00 38 b5 52 ec 37 6a 00 ba 37 f4 b1 cb 37
       3.0613974e-05 2.8171906e-05 2.217312e-05 2.4282352e-05
000070 00 00 00 00 00 00 00 00 00 00 00 00 00 00 00 00
       0.0 0.0 0.0 0.0
000080 2b 5f 9d 35 df a5 8f 35 d2 b2 62 35 b5 dd 78 35
       1.1725109e-06 1.0702605e-06 8.445178e-07 9.2709826e-07
000090 00 00 00 00 00 00 00 00 00 00 00 00 00 00 00 00
       0.0 0.0 0.0 0.0
0000a0 d2 54 c9 36 73 62 ba 36 0b 85 92 36 64 0d a0 36
       6.000141e-06 5.554693e-06 4.3666273e-06 4.7699305e-06
0000b0 00 00 00 00 00 00 00 00 00 00 00 00 00 00 00 00
       0.0 0.0 0.0 0.0
0000c0 d0 c2 12 32 3d 29 68 32 e2 7a 48 32 2b fa 34 2e
       8.542614e-09 1.3513554e-08 1.16694725e-08 4.1149455e-11
0000d0 13 9f 63 37 4c 6f 52 37 81 c3 22 37 1a 8a 2e 37
       1.3567292e-05 1.2542889e-05 9.701472e-06 1.04033625e-05
0000e0 ab 94 71 35 e1 68 14 35 9e 2c 1b 35 f2 a2 10 35
       8.9995837e-07 5.5286915e-07 5.7806926e-07 5.3881297e-07
0000f0 2a 13 9e 33 48 2c e4 34 33 5e 41 33 01 4b d3 34
       7.360934e-08 4.2500528e-07 4.5021988e-08 3.9356385e-07
000100 14 0a f6 31 01 dc 27 33 de 20 f6 32 cf 88 fd 33
       7.160688e-09 3.908281e-08 2.8653115e-08 1.1806116e-07
000110 7e 62 7a 2a 36 56 3c 2f 93 a5 23 2f d4 31 a9 25
       2.2238632e-13 1.7129129e-10 1.4883587e-10 2.9350592e-16
000120 f4 f8 c5 2b 15 09 2a 2e e5 0c 84 2f 78 33 13 2e
       1.406679e-12 3.866159e-11 2.4019822e-10 3.3469644e-11
000130 34 f5 80 35 35 78 d6 35 2f 9c cf 35 09 47 04 36
       9.608107e-07 1.5979227e-06 1.5468157e-06 1.971088e-06
000140 63 40 c8 36 3d f1 9c 35 07 41 b4 35 29 56 24 35
       5.96796e-06 1.1693115e-06 1.342997e-06 6.122014e-07
000150 0e 2f ee 34 a6 44 15 35 75 4d 56 35 c8 cf 72 34
       4.436519e-07 5.560672e-07 7.983393e-07 2.2613597e-07
000160 78 d7 06 37 46 2f cc 36 8c 91 9b 36 9e b5 e6 36
       8.03719e-06 6.085177e-06 4.636304e-06 6.875677e-06
000170 9f f7 aa 35 9d f9 bc 35 78 e6 2f 35 9f bc c7 35
       1.2738054e-06 1.4079739e-06 6.5527956e-07 1.4881551e-06
000180 be ae a2 34 ba fc 5a 34 82 05 71 34 ec 3d 33 34
       3.0301993e-07 2.0394774e-07 2.2446878e-07 1.6693201e-07
000190 0b a7 42 34 c4 b3 84 34 dc 1d b7 34 72 bf 7b 34
       1.8128428e-07 2.4717713e-07 3.4108132e-07 2.3445844e-07
0001a0 60 9a 11 32 c4 8a 02 32 53 4e da 31 80 db ba 31
       8.475212e-09 7.598548e-09 6.3535395e-09 5.4382667e-09
0001b0 00 00 00 00 00 00 00 00 00 00 00 00 00 00 00 00
       0.0 0.0 0.0 0.0
0001c0 e8 c6 d6 35 69 ea cc 35 81 04 8c 35 c4 7c 9e 35
       1.6002132e-06 1.5267407e-06 1.0432124e-06 1.1808229e-06
0001d0 00 00 00 00 00 00 00 00 00 00 00 00 00 00 00 00
       0.0 0.0 0.0 0.0
0001e0 39 f7 f5 36 6d 01 03 37 be 8e 52 36 df a1 08 37
       7.3303495e-06 7.80854e-06 3.1375525e-06 8.14392e-06
0001f0 94 56 a1 34 04 b3 28 34 43 16 33 34 26 4a cd 34
       3.005158e-07 1.5711345e-07 1.6678773e-07 3.8238176e-07

exp_avg f4 [32]
000000 00 00 00 00 f2 f0 3b 3c c7 da 8f bc 00 00 00 00
       0.0 0.01147102 -0.017560376 0.0
000010 d8 38 e0 ba 3a d1 50 bd be 33 8b bd 00 00 00 00
       -0.0017106785 -0.050980784 -0.067969784 0.0
000020 30 0f 5c bc 00 00 00 00 ce 2f f4 3c 00 00 00 00
       -0.013431355 0.0 0.029807951 0.0
000030 5c 4f d7 b9 a3 06 36 3d da 5b 2f bc 3f 1f c0 bb
       -0.00041067123 0.044439923 -0.010703051 -0.0058631
000040 16 e1 02 3b 05 8b 12 38 88 77 96 38 5b 97 4c bc
       0.0019970587 3.4938585e-05 7.174822e-05 -0.012487258
000050 2d 1f ab bc 2d db 14 3c 8b 24 06 bd b3 b7 65 3c
       -0.02088889 0.009085459 -0.032749694 0.014020848
000060 53 b2 d6 3b da 7d c7 3b 85 c8 7b ba 00 00 00 00
       0.0065520196 0.0060880007 -0.000960477 0.0
000070 da df 66 bc 00 00 00 00 44 8c 04 bd c7 b9 c2 3b
       -0.014091456 0.0 -0.03236033 0.0059425565

exp_avg_sq f4 [32]
000000 00 00 00 00 4b db 69 36 45 99 09 37 00 00 00 00
       0.0 3.484735e-06 8.201522e-06 0.0
000010 31 3a a2 33 bf 96 88 38 90 77 f3 38 00 00 00 00
       7.554298e-08 6.513064e-05 0.00011609413 0.0
000020 3d 13 95 36 00 00 00 00 6c 06 bf 37 00 00 00 00
       4.4427857e-06 0.0 2.2771965e-05 0.0
000030 b9 32 77 32 29 0c 54 38 37 92 3c 36 30 53 8a 35
       1.4388825e-08 5.0556064e-05 2.8099291e-06 1.0306012e-06
000040 94 a2 1a 34 00 3c 53 2f f1 f6 9c 2f ab 99 88 36
       1.4401513e-07 1.9211654e-10 2.8551697e-10 4.071005e-06
000050 a1 30 48 37 bc 21 18 36 a7 a4 e2 37 e7 40 af 36
       1.1932251e-05 2.26694e-06 2.7017972e-05 5.222962e-06
000060 f9 49 9c 35 28 d8 8b 35 c0 ff f9 32 00 00 00 00
       1.1644435e-06 1.0419217e-06 2.9103717e-08 0.0
000070 20 17 a6 36 00 00 00 00 80 63 e1 37 24 43 81 35
       4.9498776e-06 0.0 2.6868423e-05 9.63079e-07

exp_avg f4 [1, 32]
000000 00 00 00 00 0e a3 f6 bc 9d 73 48 bc 00 00 00 00
       0.0 -0.030107047 -0.012234596 0.0
000010 33 b1 4c be 25 3e 67 bd 20 68 8c be 00 00 00 00
       -0.19989471 -0.05645575 -0.2742319 0.0
000020 22 a6 9b be 00 00 00 00 1a fd 45 be 00 00 00 00
       -0.30400187 0.0 -0.19334832 0.0
000030 8b 0a 05 ba 55 8f 40 be 54 d1 6c bd df 23 9d bb
       -0.00050751184 -0.18804677 -0.05781682 -0.004795536
000040 90 b6 99 ba 05 dc 10 37 b5 f8 03 ba 88 7e 97 bc
       -0.0011727381 8.634296e-06 -0.00050343137 -0.018492952
000050 59 2e 5d bc 22 77 f3 bc c1 28 8f bd 26 3f 89 bd
       -0.01349982 -0.029719893 -0.06990195 -0.06701498
000060 bf ef 81 bd 16 50 02 bd 2e d9 8d bd 00 00 00 00
       -0.06344556 -0.031814657 -0.06926189 0.0
000070 80 e8 87 bd 00 00 00 00 c9 b6 80 bd 6f 04 90 bc
       -0.06636143 0.0 -0.062848635 -0.01758024

exp_avg_sq f4 [1, 32]
000000 00 00 00 00 35 ec cf 37 7c 7c 85 36 00 00 00 00
       0.0 2.4786315e-05 3.9782008e-06 0.0
000010 d1 30 85 3a 06 ee ab 38 49 93 f9 3a 00 00 00 00
       0.0010161643 8.198251e-05 0.0019041087 0.0
000020 9b 63 18 3b 00 00 00 00 f1 5d 7b 3a 00 00 00 00
       0.002325273 0.0 0.00095888885 0.0
000030 ab b9 b6 32 69 b6 6d 3a 69 99 b5 38 03 8a 48 35
       2.127202e-08 0.0009068014 8.6593274e-05 7.470664e-07
000040 32 9f 68 33 cb de 4c 2d 8a 43 70 32 5a 78 20 37
       5.4161497e-08 1.1645527e-11 1.3985195e-08 9.564765e-06
000050 71 83 bb 36 f6 2d cc 37 f4 fe 02 39 8c c2 f8 38
       5.588336e-06 2.4340097e-05 0.00012492744 0.00011861799
000060 f4 f5 d9 38 91 9e e5 37 56 79 00 39 00 00 00 00
       0.00010393179 2.7372766e-05 0.00012252232 0.0
000070 66 b5 ee 38 00 00 00 00 7e 13 dd 38 93 e9 0c 37
       0.000113825125 0.0 0.00010541732 8.3990335e-06
