lightning_logs/version_10/checkpoints/epoch=1-step=7.ckpt (torch, 6910 bytes, 9 tensors)

init_hidden.0.weight f4 [32, 4]
00000000: be94 97be e0e8 923d 106d 233e a001 113d
00000010: 5fbe a6be fcd5 f53e b9e2 93be f63a d13e
00000020: 7fcf cabe e1bc fabd c94c 8b3e 4bdd 4fbe
00000030: 0e0d d73e 062b b0be 44fb d6be e0de 66be
00000040: f5d0 a53d 9b95 eb3e 268f 74be e810 3b3e
00000050: b310 07be f73a ebbd eb30 ba3e 3762 c7be
00000060: 1943 453d a37a ee3e 80e9 92bd 0e61 c73e
00000070: 84ac 1dbe 0012 ce3e f6a2 f7be 2895 93bd
00000080: 8013 bebd 495a 213e 56bb 453e 7a28 c53e
00000090: c88f 98bd 606d a2bc ca4f af3e 9088 0abe
000000a0: 9bef e23e 5232 a8be 6047 51bd 92b6 e5bc
000000b0: a075 643e 6605 af3e d04e a2bd 4e17 d4be
000000c0: ee92 803e 809c 1c3e 3c20 513e e530 9cbe
000000d0: 4c4b a73e b8b9 f43e d7e3 3d3d 49bc efbe
000000e0: 8546 b13e 6f3e c0be 2f12 e43d c23f 973d
000000f0: 1aa8 6fbe 53d1 313e a858 e4be f946 ef3d
00000100: b0e2 a5be 350a 75bd 63cc 763d 323e d73e
00000110: 61e9 78be 7cb0 a13e 2356 8bbd cdc3 77be
00000120: a45d dfbe 87e3 eabe 62e7 f93e 2389 febd
00000130: a6d3 bf3c 3078 0b3e f0e5 ad3e efe5 da3e
00000140: 2e63 ce3e 29e9 c0be 9ac7 a0bd 77f4 96be
00000150: 847a 90be 1881 fb3d 5eac f13e b253 cdbe
00000160: 750a 983e 4796 85be a0ed c7bd c6ba cb3e
00000170: 7e2e dabd db05 3e3d e8c8 b2be 3d3b d93e
00000180: 6f87 70bd 4837 b8be 1b7d 1a3e 2344 b5be
00000190: 4263 c9be 38d8 0a3d 7b42 cc3e fd38 12be
000001a0: 23c1 753e 7200 de3e f00c ab3e dfb2 86be
000001b0: 6080 60bd 601e 21be 00db cdbe 00a0 5839
000001c0: 0b93 bd3e d48c d53e 75cf 2f3d db27 ea3d
000001d0: e8a7 5dbe 5a3d c13e 2c0c 55be c4d4 b1be
000001e0: a03b 8f3d b91f 983e 2073 e9be 05c7 e73e
000001f0: c7ad 363e 7141 b4be ddaf ddbd 549a dc3e
-0.2960567 0.07173324 0.15959573 0.03540194 -0.32567117 0.4801482 -0.28883913 0.40865296
-0.39611432 -0.12243057 0.2720702 -0.2029926 0.42002147 -0.34407824 -0.41988575 -0.22545958
0.08096496 0.46012577 -0.23882732 0.18268168 -0.13189964 -0.11485856 0.36365446 -0.3894212
0.048159692 0.4657794 -0.07173443 0.38941234 -0.1539784 0.40248108 -0.48366517 -0.07206184
-0.09281063 0.15757097 0.19309744 0.38507444 -0.07449299 -0.019827545 0.34240562 -0.13528657
0.4432343 -0.3285089 -0.05109346 -0.028041158 0.22310495 0.34183806 -0.079251885 -0.4142403
0.25112098 0.15294075 0.20422453 -0.30506054 0.32674634 0.47797942 0.046359863 -0.46823338
0.34624115 -0.37547633 0.11136281 0.07385208 -0.2340397 0.17365007 -0.4459889 0.11683459
-0.3239951 -0.059824187 0.060253512 0.4203964 -0.24307777 0.3157996 -0.06803539 -0.24195786
-0.4362613 -0.45876715 0.48809344 -0.124285005 0.023416352 0.13620067 0.3396449 0.4275355
0.40310043 -0.37677887 -0.07850571 -0.29483387 -0.28218472 0.12280482 0.47201818 -0.40102917
0.29695478 -0.26091215 -0.0976212 0.39790934 -0.10653399 0.046392303 -0.34918904 0.42428008
-0.05872291 -0.35979676 0.15086786 -0.35403547 -0.3933354 0.03389761 0.3989447 -0.14279552
0.23999457 0.43359715 0.33408308 -0.26308343 -0.054809928 -0.15734243 -0.40206146 0.0002065897
0.37026247 0.41709006 0.042922456 0.11433383 -0.21646082 0.3774212 -0.20805424 -0.3473264
0.069937944 0.29711702 -0.45595646 0.45269027 0.17839728 -0.35206178 -0.10824559 0.43086493

init_hidden.0.bias f4 [32]
00000000: 7e69 c4be 5a1e 17be ca55 253e 1c47 e0be
00000010: f160 8c3e 71e7 813e 4c85 9c3e 4a36 a3be
00000020: d3b3 fc3e 38bf 97be 1fe8 003f 46ae f5be
00000030: 415c e2be 4b72 9f3e 829d 433d 715a fd3c
00000040: 219c 90be fb65 5bbe 7aec 15be e42d f9be
00000050: 704f a53c 8568 bd3d 6553 e1ba 3105 293e
00000060: 4b04 f63e 8c00 0b3e 6575 37be 40b6 52be
00000070: 3f7b a6be ca76 b1be b4ff b0bd 24a2 bbbd
-0.38361734 -0.14757672 0.16146007 -0.43804252 0.2741771 0.25371888 0.30570447 -0.31877357
0.49355945 -0.29638076 0.5035419 -0.47984523 -0.4421101 0.31141886 0.047757633 0.030926915
-0.28244117 -0.21425621 -0.1464099 -0.48667824 0.02017948 0.09248451 -0.0017190991 0.16505887
0.4805015 0.13574427 -0.17915876 -0.20577335 -0.32515904 -0.3466094 -0.086425215 -0.09161785

output_layer.weight f4 [1, 32]
00000000: b20e a13d 8a0d 95bd 7c5c 0a3e 0d09 febd
00000010: dbc4 6fbb 97f8 1d3e 0bef 303e 20b7 d1bd
00000020: df61 ec3c 580f ab3c 5f0f b4bd 3e2a 7abd
00000030: 26f9 513d 465f 03be 8611 ce3c 7d31 a53d
00000040: de51 8dbd 9ed3 113e fb3e 2abc edf5 a43d
00000050: 270c 303e 5735 6dbd f77a c63d 2c7f 48bd
00000060: 8358 00bd 91c7 06bd 657f babb 4bc4 88bd
00000070: fd63 173d a044 da3b da5d e93d 3312 04bd
0.07864131 -0.07277973 0.13511842 -0.1240407 -0.003658584 0.15426861 0.17278688 -0.102400064
0.028855262 0.02088134 -0.08791994 -0.06107544 0.051262997 -0.12829313 0.02515484 0.0806608
-0.069003806 0.14240882 -0.010390992 0.08054719 0.17192136 -0.057912197 0.096914224 -0.048949406
-0.03133441 -0.032905165 -0.005691456 -0.06678065 0.03696059 0.006661013 0.11394854 -0.03224392

exp_avg f4 [32, 4]
00000000: 0000 0000 0000 0000 0000 0000 0000 0000
00000010: b3c2 9c38 75e3 57b9 bb94 e5b9 b458 e639
00000020: ac56 2ab9 5501 e639 bb86 9a3a c141 ef39
00000030: 0000 0000 0000 0000 0000 0000 0000 0000
00000040: b215 a037 d3eb 3237 27f6 3a37 fc54 ce37
00000050: 3fe8 023b c437 483b 8532 2b3b cfe6 263b
00000060: 31d1 973a b2b0 e93a 8dd4 ff3a 4408 c0b8
00000070: 0000 0000 0000 0000 0000 0000 0000 0000
00000080: fd07 6b39 edd4 ae39 bd12 c039 5b67 bb36
00000090: 0000 0000 0000 0000 0000 0000 0000 0000
000000a0: 6807 09ba a674 5aba 3467 6fba df04 a938
000000b0: 0000 0000 0000 0000 0000 0000 0000 0000
000000c0: 3631 bdb8 30f4 edb8 721f ddb8 9d17 d2b6
000000d0: 186b 56ba 0cf5 a1ba ad03 a4ba 52b8 2239
000000e0: 2d83 8839 1beb 8039 107b 9839 42ec 1bb5
000000f0: 7ded d838 1841 c738 8ab7 99b8 1213 deb9
00000100: 4330 9539 6e5a 143a f6af 8d39 275e 583a
00000110: 437d 2f37 2833 9839 8bdf 8d39 fc02 cc34
00000120: b4af 0fb6 04ee a3b7 f1a7 4fb8 6950 34b8
00000130: f157 9b39 2846 3039 6067 413a 226b 3939
00000140: e244 3b3a 7c19 623a 140d 68b9 97d8 5cb9
00000150: ae79 4db9 bdb8 14ba 0696 f2b9 610d a5b9
00000160: 18e4 683a a543 8c3a 2f96 713a a857 0a38
00000170: 2a12 bcb9 d692 c6b9 42fd f9b9 7652 0e38
00000180: 4b7a 70b9 adef c2b9 0562 adb9 233a 06b9
00000190: f7d9 0bb9 5331 a0b9 bcc4 a1b9 7d3c 03b9
000001a0: e2d6 9835 52a3 89b7 cc85 08b7 170c 1637
000001b0: 0000 0000 0000 0000 0000 0000 0000 0000
000001c0: 645f c639 dd59 9539 31b6 9f39 e60d 05b7
000001d0: 0000 0000 0000 0000 0000 0000 0000 0000
000001e0: 2692 ac3a 3ddc 563a a287 823a 1e19 8937
000001f0: d793 1839 be28 1d39 ea41 d038 487f c339
0.0 0.0 0.0 0.0 7.474925e-05 -0.00020588732 -0.00043789097 0.00043935108
-0.00016244751 0.0004387001 0.001178942 0.00045634623 0.0 0.0 0.0 0.0
1.9083589e-05 1.0664534e-05 1.1143776e-05 2.4596688e-05 0.0019974855 0.0030550817 0.0026122641 0.0025467162
0.001158273 0.0017829149 0.0019518301 -9.156813e-05 0.0 0.0 0.0 0.0
0.00022414322 0.00033346508 0.00036635055 5.5850664e-06 0.0 0.0 0.0 0.0
-0.0005227239 -0.0008333422 -0.0009132505 8.059455e-05 0.0 0.0 0.0 0.0
-9.0213885e-05 -0.00011346524 -0.00010543958 -6.2612366e-06 -0.00081794104 -0.0012356355 -0.0012513302 0.00015518189
0.00026037675 0.0002458923 0.00029083388 -5.80858e-07 0.00010343918 9.501184e-05 -7.329795e-05 -0.00042357348
0.00028455452 0.0005659227 0.00027024717 0.0008253776 1.0459978e-05 0.00029029814 0.00027060168 3.8000132e-07
-2.1410933e-06 -1.9541949e-05 -4.9509053e-05 -4.2990232e-05 0.00029629425 0.00016810803 0.000737777 0.00017682885
0.0007143748 0.0008625013 -0.00022130116 -0.00021061521 -0.00019595653 -0.000567328 -0.00046269613 -0.0003148122
0.0008884086 0.0010701312 0.00092157995 3.29834e-05 -0.00035871688 -0.00037874904 -0.00047681673 3.3932236e-05
-0.00022933741 -0.00037181136 -0.00033070162 -0.00012800893 -0.00013337271 -0.00030554328 -0.00030854892 -0.00012515667
1.1387422e-06 -1.6407725e-05 -8.137384e-06 8.943512e-06 0.0 0.0 0.0 0.0
0.00037836574 0.00028486448 0.00030462586 -7.930654e-06 0.0 0.0 0.0 0.0
0.0013166114 0.000819627 0.0009958635 1.6343369e-05 0.00014550924 0.00014987864 9.93049e-05 0.0003728813

exp_avg_sq f4 [32, 4]
00000000: 0000 0000 0000 0000 0000 0000 0000 0000
00000010: 5185 4033 d748 ed33 e9e0 8a33 0f9b 0934
00000020: 06cf 4433 4c4a 3634 e1f6 c634 fd6d 7634
00000030: 0000 0000 0000 0000 0000 0000 0000 0000
00000040: ab29 572f c2dc 282f 468a 722f 7565 5b2f
00000050: a8c4 3a35 88b5 6c35 928b bd35 cfec 7235
00000060: 15f3 9535 e2d5 9735 4929 e335 aa83 9f35
00000070: 0000 0000 0000 0000 0000 0000 0000 0000
00000080: a35d 1133 4088 1533 615e 6033 92dd 1b33
00000090: 0000 0000 0000 0000 0000 0000 0000 0000
000000a0: cf87 9234 4ac0 9234 b23a db34 92c0 9a34
000000b0: 0000 0000 0000 0000 0000 0000 0000 0000
000000c0: b75b 3a30 6666 9330 3992 7e30 6fce 652c
000000d0: 56aa 2035 d061 1e35 6a2c 6835 579c 3335
000000e0: e61a cd32 2427 2732 4f90 bd32 0d89 6132
000000f0: b0bf 7632 8ddb 0333 5c52 6e31 f5be 3433
00000100: 2257 5c31 a8a2 c132 3d9c c732 c639 6433
00000110: b2d0 682d 011f 2f32 e429 1832 7c52 9d28
00000120: 6a61 f52b 8f78 112e f077 a42f d358 182f
00000130: 77c8 c733 5e2d 1834 0cf8 4334 ca9d 8334
00000140: 8eff 5934 48de 3133 ad2c f033 f8c1 2c33
00000150: 7e6a 5733 954f bf33 9cba 0534 877d 7333
00000160: 6618 c534 cc0d a634 67a8 e534 73f0 bf34
00000170: 82af 2633 a2da 7d33 8d82 8d33 3ab1 b233
00000180: d49d d032 bd38 cf32 dfbe 2733 e6f3 b832
00000190: fe93 9032 03bf e932 a60f 4933 75cd f932
000001a0: 75be 2930 3bf3 0a30 d974 3a30 8e92 e82f
000001b0: 0000 0000 0000 0000 0000 0000 0000 0000
000001c0: 072e 5933 d467 5333 1bd2 6333 fcb6 4c33
000001d0: 0000 0000 0000 0000 0000 0000 0000 0000
000001e0: ab28 7734 bce4 8f34 02f1 6734 fa2b a834
000001f0: cd2c 6b32 57ea c031 7621 1e32 9786 b332
0.0 0.0 0.0 0.0 4.4824734e-08 1.1049422e-07 6.467037e-08 1.2815529e-07
4.5823093e-08 1.69771e-07 3.7060002e-07 2.2950549e-07 0.0 0.0 0.0 0.0
1.956894e-10 1.535794e-10 2.2058896e-10 1.9953979e-10 6.957657e-07 8.8181014e-07 1.4122218e-06 9.0496627e-07
1.1172111e-06 1.1312625e-06 1.6924834e-06 1.1884742e-06 0.0 0.0 0.0 0.0
3.3845605e-08 3.4815685e-08 5.22399e-08 3.6290267e-08 0.0 0.0 0.0 0.0
2.7293433e-07 2.7334528e-07 4.0834635e-07 2.882485e-07 0.0 0.0 0.0 0.0
6.779674e-10 1.0724761e-09 9.2612457e-10 3.265745e-12 5.9852516e-07 5.900192e-07 8.6491366e-07 6.69102e-07
2.3877373e-08 9.729579e-09 2.206812e-08 1.31278854e-08 1.4362669e-08 3.0700495e-08 3.4680374e-09 4.208319e-08
3.2063743e-09 2.2542125e-08 2.3237698e-08 5.313793e-08 1.3234013e-11 1.019339e-08 8.857089e-09 1.7466273e-14
1.7435335e-12 3.307626e-11 2.9916647e-10 1.3855876e-10 9.303124e-08 1.4172608e-07 1.8251029e-07 2.4515458e-07
2.030267e-07 4.1413188e-08 1.11839974e-07 4.0223284e-08 5.0155442e-08 8.9086065e-08 1.2454478e-07 5.6692013e-08
3.6711862e-07 3.0929948e-07 4.2777103e-07 3.5751472e-07 3.880951e-08 5.9105e-08 6.589571e-08 8.321008e-08
2.4286159e-08 2.4123773e-08 3.9056314e-08 2.1531331e-08 1.6831105e-08 2.7211632e-08 4.681319e-08 2.9080846e-08
6.17525e-10 5.054976e-10 6.7832456e-10 4.2304688e-10 0.0 0.0 0.0 0.0
5.056611e-08 4.9221697e-08 5.3043646e-08 4.7663875e-08 0.0 0.0 0.0 0.0
2.3018463e-07 2.6802252e-07 2.160123e-07 3.1324436e-07 1.3688987e-08 5.614577e-09 9.204419e-09 2.0899547e-08

exp_avg f4 [32]
00000000: 0000 0000 1eb4 cc36 9cb2 eb3a 0000 0000
00000010: f14f 9337 3982 c83b ed6c 693b 0000 0000
00000020: db0d 2e3a 0000 0000 c8f4 daba 0000 0000
00000030: 028a f5b8 43a4 1dbb c229 033a 91f1 c8b9
00000040: 4ba0 753a c72f a139 2100 64b8 e32a 053a
00000050: 4a2c bf3a b46f a0ba 3165 e13a e56e 70ba
00000060: 19c6 3fba df41 0cba b3a8 02b8 0000 0000
00000070: ac69 103a 0000 0000 5a05 ba3a 9fbe f939
0.0 6.100642e-06 0.0017982307 0.0 1.7560991e-05 0.0061190394 0.0035617903 0.0
0.0006639638 0.0 -0.001670503 0.0 -0.00011708216 -0.0024054206 0.0005003476 -0.00038326954
0.0009369894 0.0003074391 -5.4359556e-05 0.0005079938 0.0014585343 -0.0012240321 0.0017196295 -0.0009171798
-0.00073155906 -0.0005350392 -3.115153e-05 0.0 0.00055089104 0.0 0.0014192269 0.00047635005

exp_avg_sq f4 [32]
00000000: 0000 0000 1aff 7a34 255c 5535 0000 0000
00000010: 3d18 2430 ecce 6736 241b 8a36 0000 0000
00000020: edb1 0734 0000 0000 71d5 8535 0000 0000
00000030: 75f2 9c30 3bbf 1636 976b 6733 d121 b333
00000040: b434 9233 7969 4432 8bb2 c92f 5df5 ef34
00000050: 96a7 bc34 f04b aa34 ed53 9935 d027 3d34
00000060: ae96 d033 7b9d e033 ac87 ed30 0000 0000
00000070: 9730 2134 0000 0000 a164 2535 697e 0c33
0.0 2.337587e-07 7.948277e-07 0.0 5.9697297e-10 3.4542127e-06 4.11588e-06 0.0
1.2637584e-07 0.0 9.971392e-07 0.0 1.1419404e-09 2.2463053e-06 5.388173e-08 8.341488e-08
6.8082414e-08 1.1432683e-08 3.668855e-10 4.4695744e-07 3.5139664e-07 3.172022e-07 1.1423814e-06 1.761648e-07
9.713163e-08 1.04594584e-07 1.728258e-09 0.0 1.501197e-07 0.0 6.1613724e-07 3.271126e-08

exp_avg f4 [1, 32]
00000000: 0000 0000 8ef6 24bb c74c 803b 0000 0000
00000010: 4acd fc3b 4ed4 c63b abae 293c 0000 0000
00000020: 04ac 553c 0000 0000 d4ca 113c 0000 0000
00000030: 190c 18b9 8404 623c 59d4 f43a ef75 e5b9
00000040: 42b3 9139 2b54 4d38 8774 c838 fad9 b93a
00000050: 5d37 f839 ad0d 7c3b f1b4 54ba ea63 91ba
00000060: 734b f03b 1642 8f3b 0591 a73b 0000 0000
00000070: b75e 183b 0000 0000 b825 f7ba 403c 1fbb
0.0 -0.0025171372 0.0039154026 0.0 0.007714902 0.006067789 0.0103565855 0.0
0.0130415 0.0 0.008898456 0.0 -0.00014500356 0.013795022 0.0018679007 -0.0004376615
0.00027790113 4.8954196e-05 9.558448e-05 0.0014179342 0.00047343495 0.00384603 -0.00081141206 -0.0011092399
0.007333213 0.0043718917 0.005113723 0.0 0.0023249814 0.0 -0.0018855846 -0.0024297386

exp_avg_sq f4 [1, 32]
00000000: 0000 0000 bb16 1236 6ff7 5e35 0000 0000
00000010: 10d5 0738 1a52 c236 22dc 9338 0000 0000
00000020: a21e cc38 0000 0000 7311 0f38 0000 0000
00000030: 7b49 ea30 87f0 2538 a258 7a36 2a9c cd32
00000040: 31cb 4c33 2570 b32f c7a2 6732 e6b1 a035
00000050: 26c5 3c34 5213 7136 ca0b 9236 1946 8936
00000060: 8cc2 c636 16ac 9036 0c7c 1837 0000 0000
00000070: 74e9 9436 0000 0000 957b 4036 b951 5b35
0.0 2.1768926e-06 8.306151e-07 0.0 3.2384938e-05 5.7912084e-06 7.050509e-05 0.0
9.733184e-05 0.0 3.4110108e-05 0.0 1.7046625e-09 3.9563074e-05 3.7304494e-06 2.3936156e-08
4.7682253e-08 3.2639594e-10 1.3482981e-08 1.1972704e-06 1.7580587e-07 3.5923044e-06 4.3525115e-06 4.0910786e-06
5.923508e-06 4.311568e-06 9.088788e-06 0.0 4.4379212e-06 0.0 2.8682164e-06 8.170278e-07
